trained/ai85-firetestnet-cifar10.pth.tar (torch_old, 12896 bytes, 8 tensors)

fire1.squeeze_layer.conv2d.weight f4 [2, 3, 1, 1]
000000 00 00 9c 42 00 00 40 40 00 00 a6 42 00 00 8c 42
       78.0 3.0 83.0 70.0
000010 00 00 9e 42 00 00 00 c3
       79.0 -128.0

fire1.expand1x1_layer.conv2d.weight f4 [4, 2, 1, 1]
000000 00 00 ae c2 00 00 da 42 00 00 f4 c2 00 00 8a 42
       -87.0 109.0 -122.0 69.0
000010 00 00 24 c2 00 00 fe 42 00 00 d8 42 00 00 9c c2
       -41.0 127.0 108.0 -78.0

fire1.expand3x3_layer.conv2d.weight f4 [4, 2, 3, 3]
000000 00 00 5c 42 00 00 2c 42 00 00 04 42 00 00 88 c1
       55.0 43.0 33.0 -17.0
000010 00 00 e0 c0 00 00 f8 41 00 00 68 c2 00 00 ac c2
       -7.0 31.0 -58.0 -86.0
000020 00 00 c4 c2 00 00 a8 41 00 00 40 41 00 00 04 42
       -98.0 21.0 12.0 33.0
000030 00 00 68 42 00 00 74 42 00 00 c4 42 00 00 80 c2
       58.0 61.0 98.0 -64.0
000040 00 00 f8 c2 00 00 ea c2 00 00 90 c1 00 00 94 c2
       -124.0 -117.0 -18.0 -74.0
000050 00 00 40 40 00 00 20 c2 00 00 40 40 00 00 14 42
       3.0 -40.0 3.0 37.0
000060 00 00 74 c2 00 00 80 40 00 00 1c 42 00 00 10 42
       -61.0 4.0 39.0 36.0
000070 00 00 88 42 00 00 00 80 00 00 20 42 00 00 70 41
       68.0 -0.0 40.0 15.0
000080 00 00 e8 c1 00 00 54 42 00 00 80 41 00 00 60 c1
       -29.0 53.0 16.0 -14.0
000090 00 00 00 c0 00 00 40 c0 00 00 c0 c1 00 00 6c 42
       -2.0 -3.0 -24.0 59.0
0000a0 00 00 14 c2 00 00 c0 c1 00 00 a8 41 00 00 38 c2
       -37.0 -24.0 21.0 -46.0
0000b0 00 00 00 c0 00 00 d8 41 00 00 50 c1 00 00 80 c0
       -2.0 27.0 -13.0 -4.0
0000c0 00 00 40 c0 00 00 40 41 00 00 e0 40 00 00 b2 42
       -3.0 12.0 7.0 89.0
0000d0 00 00 a8 42 00 00 da 42 00 00 98 41 00 00 58 42
       84.0 109.0 19.0 54.0
0000e0 00 00 a8 41 00 00 24 c2 00 00 60 c2 00 00 00 c2
       21.0 -41.0 -56.0 -32.0
0000f0 00 00 f8 c1 00 00 84 c2 00 00 a8 c2 00 00 00 c3
       -31.0 -66.0 -84.0 -128.0
000100 00 00 94 c2 00 00 90 c2 00 00 80 40 00 00 44 c2
       -74.0 -72.0 4.0 -49.0
000110 00 00 86 c2 00 00 ac 42 00 00 64 42 00 00 e2 42
       -67.0 86.0 57.0 113.0

fc.linear.weight f4 [10, 128]
000000 00 00 90 41 00 00 a0 c0 00 00 30 c1 00 00 a0 41
       18.0 -5.0 -11.0 20.0
000010 00 00 40 40 00 00 80 bf 00 00 a0 c0 00 00 00 00
       3.0 -1.0 -5.0 0.0
000020 00 00 c0 40 00 00 50 41 00 00 80 bf 00 00 00 41
       6.0 13.0 -1.0 8.0
000030 00 00 d0 41 00 00 00 c1 00 00 80 40 00 00 90 41
       26.0 -8.0 4.0 18.0
000040 00 00 80 41 00 00 80 3f 00 00 40 c0 00 00 00 41
       16.0 1.0 -3.0 8.0
000050 00 00 70 41 00 00 00 80 00 00 80 3f 00 00 e0 40
       15.0 -0.0 1.0 7.0
000060 00 00 a0 40 00 00 80 c0 00 00 30 41 00 00 e0 40
       5.0 -4.0 11.0 7.0
000070 00 00 60 41 00 00 00 40 00 00 c0 c0 00 00 70 41
       14.0 2.0 -6.0 15.0
000080 00 00 80 41 00 00 d8 c1 00 00 d8 c1 00 00 70 41
       16.0 -27.0 -27.0 15.0
000090 00 00 80 c0 00 00 90 c1 00 00 e0 c1 00 00 80 bf
       -4.0 -18.0 -28.0 -1.0
0000a0 00 00 40 c1 00 00 00 40 00 00 80 bf 00 00 a0 c0
       -12.0 2.0 -1.0 -5.0
0000b0 00 00 80 40 00 00 00 c1 00 00 30 c1 00 00 20 41
       4.0 -8.0 -11.0 10.0
0000c0 00 00 c0 c0 00 00 08 c2 00 00 14 c2 00 00 00 40
       -6.0 -34.0 -37.0 2.0
0000d0 00 00 10 41 00 00 80 3f 00 00 80 3f 00 00 80 41
       9.0 1.0 1.0 16.0
0000e0 00 00 98 41 00 00 70 41 00 00 c8 41 00 00 90 41
       19.0 15.0 25.0 18.0
0000f0 00 00 40 c0 00 00 80 3f 00 00 c0 c0 00 00 00 00
       -3.0 1.0 -6.0 0.0
000100 00 00 d8 41 00 00 a0 c0 00 00 c0 c0 00 00 a0 41
       27.0 -5.0 -6.0 20.0
000110 00 00 e0 40 00 00 e8 41 00 00 00 42 00 00 c0 40
       7.0 29.0 32.0 6.0
000120 00 00 c0 40 00 00 b8 41 00 00 00 42 00 00 00 80
       6.0 23.0 32.0 -0.0
000130 00 00 34 42 00 00 88 41 00 00 30 41 00 00 28 42
       45.0 17.0 11.0 42.0
000140 00 00 30 41 00 00 f8 c1 00 00 a8 c1 00 00 20 c1
       11.0 -31.0 -21.0 -10.0
000150 00 00 28 c2 00 00 3c c2 00 00 00 c1 00 00 a0 c1
       -42.0 -47.0 -8.0 -20.0
000160 00 00 a0 c0 00 00 20 c1 00 00 30 41 00 00 20 c1
       -5.0 -10.0 11.0 -10.0
000170 00 00 30 41 00 00 c0 c1 00 00 c8 c1 00 00 00 c0
       11.0 -24.0 -25.0 -2.0
000180 00 00 70 c1 00 00 80 c1 00 00 a8 c1 00 00 e0 c0
       -15.0 -16.0 -21.0 -7.0
000190 00 00 88 c1 00 00 e0 40 00 00 80 bf 00 00 88 c1
       -17.0 7.0 -1.0 -17.0
0001a0 00 00 08 c2 00 00 c0 c1 00 00 00 c2 00 00 f0 c1
       -34.0 -24.0 -32.0 -30.0
0001b0 00 00 80 40 00 00 f0 c1 00 00 d8 c1 00 00 10 41
       4.0 -30.0 -27.0 9.0
0001c0 00 00 30 41 00 00 40 40 00 00 80 3f 00 00 80 3f
       11.0 3.0 1.0 1.0
0001d0 00 00 d8 41 00 00 24 42 00 00 18 42 00 00 d8 41
       27.0 41.0 38.0 27.0
0001e0 00 00 a8 41 00 00 e8 41 00 00 1c 42 00 00 b0 41
       21.0 29.0 39.0 22.0
0001f0 00 00 60 41 00 00 a8 c1 00 00 70 c1 00 00 b8 41
       14.0 -21.0 -15.0 23.0
000200 00 00 40 c1 00 00 50 c1 00 00 50 c1 00 00 c0 c0
       -12.0 -13.0 -13.0 -6.0
000210 00 00 60 41 00 00 80 3f 00 00 30 c1 00 00 e0 40
       14.0 1.0 -11.0 7.0
000220 00 00 40 40 00 00 30 41 00 00 00 00 00 00 00 00
       3.0 11.0 0.0 0.0
000230 00 00 c0 c1 00 00 40 40 00 00 a0 40 00 00 d0 c1
       -24.0 3.0 5.0 -26.0
000240 00 00 10 c1 00 00 80 3f 00 00 40 40 00 00 80 bf
       -9.0 1.0 3.0 -1.0
000250 00 00 80 40 00 00 e0 c0 00 00 10 c1 00 00 40 c0
       4.0 -7.0 -9.0 -3.0
000260 00 00 00 40 00 00 30 41 00 00 00 41 00 00 00 c0
       2.0 11.0 8.0 -2.0
000270 00 00 e0 c0 00 00 40 41 00 00 80 bf 00 00 c0 c0
       -7.0 12.0 -1.0 -6.0
000280 00 00 40 c1 00 00 00 40 00 00 40 c0 00 00 80 c1
       -12.0 2.0 -3.0 -16.0
000290 00 00 80 40 00 00 50 c1 00 00 60 c1 00 00 00 41
       4.0 -13.0 -14.0 8.0
0002a0 00 00 a0 c0 00 00 b0 c1 00 00 90 c1 00 00 00 80
       -5.0 -22.0 -18.0 -0.0
0002b0 00 00 60 c1 00 00 a0 41 00 00 a8 41 00 00 10 c1
       -14.0 20.0 21.0 -9.0
0002c0 00 00 40 c1 00 00 60 c1 00 00 a8 c1 00 00 30 c1
       -12.0 -14.0 -21.0 -11.0
0002d0 00 00 10 c1 00 00 b0 c1 00 00 c0 c1 00 00 20 c1
       -9.0 -22.0 -24.0 -10.0
0002e0 00 00 a0 c0 00 00 d8 c1 00 00 b0 c1 00 00 00 80
       -5.0 -27.0 -22.0 -0.0
0002f0 00 00 c8 41 00 00 80 c1 00 00 10 c1 00 00 b0 41
       25.0 -16.0 -9.0 22.0
000300 00 00 00 00 00 00 14 42 00 00 2c 42 00 00 40 40
       0.0 37.0 43.0 3.0
000310 00 00 30 42 00 00 4c 42 00 00 68 42 00 00 40 42
       44.0 51.0 58.0 48.0
000320 00 00 40 42 00 00 f8 41 00 00 3c 42 00 00 34 42
       48.0 31.0 47.0 45.0
000330 00 00 d0 c1 00 00 a0 c1 00 00 88 c1 00 00 00 c2
       -26.0 -20.0 -17.0 -32.0
000340 00 00 00 c0 00 00 c0 40 00 00 00 80 00 00 00 40
       -2.0 6.0 -0.0 2.0
000350 00 00 10 41 00 00 20 c1 00 00 b0 c1 00 00 c0 40
       9.0 -10.0 -22.0 6.0
000360 00 00 a0 c0 00 00 e0 c1 00 00 1c c2 00 00 30 c1
       -5.0 -28.0 -39.0 -11.0
000370 00 00 40 c1 00 00 a0 c0 00 00 80 41 00 00 10 c1
       -12.0 -5.0 16.0 -9.0
000380 00 00 90 41 00 00 80 40 00 00 30 41 00 00 88 41
       18.0 4.0 11.0 17.0
000390 00 00 a0 40 00 00 10 c2 00 00 f0 c1 00 00 80 c0
       5.0 -36.0 -30.0 -4.0
0003a0 00 00 80 41 00 00 40 c1 00 00 00 c1 00 00 70 41
       16.0 -12.0 -8.0 15.0
0003b0 00 00 80 c1 00 00 20 41 00 00 30 41 00 00 d0 c1
       -16.0 10.0 11.0 -26.0
0003c0 00 00 60 41 00 00 98 41 00 00 60 41 00 00 b8 41
       14.0 19.0 14.0 23.0
0003d0 00 00 0c 42 00 00 f0 41 00 00 f8 41 00 00 18 42
       35.0 30.0 31.0 38.0
0003e0 00 00 14 42 00 00 44 42 00 00 28 42 00 00 f8 41
       37.0 49.0 42.0 31.0
0003f0 00 00 80 40 00 00 90 41 00 00 90 41 00 00 00 40
       4.0 18.0 18.0 2.0

momentum_buffer f4 [2, 3, 1, 1]
000000 a8 49 92 3c e5 50 fa 3c 75 de 57 3d 9e 58 ba bd
       0.017857388 0.030556152 0.052702386 -0.09098934
000010 d5 57 27 bd 3a e3 ba bd
       -0.040855248 -0.09125371

momentum_buffer f4 [4, 2, 1, 1]
000000 88 10 bb ba 07 5d 86 3d fc cd a6 b9 72 68 88 3d
       -0.0014271894 0.06560712 -0.00031815458 0.06660546
000010 cc ac 02 3a d8 f4 3b bc 52 5d 2f bc 81 2a 04 ba
       0.0004984855 -0.0114719495 -0.010703402 -0.0005041734

momentum_buffer f4 [4, 2, 3, 3]
000000 d3 8b bd 3d 2e c2 9f 3d a8 f1 96 3d a7 58 1d 3d
       0.09255185 0.07800709 0.07370311 0.038414624
000010 cf 29 63 3d 99 24 4d 3d 59 cf c4 3c 1a 6d 23 3d
       0.055459794 0.05008373 0.024024652 0.03989897
000020 06 33 01 3d 8a fd 56 3d a4 58 37 3d 45 03 2f 3d
       0.0315428 0.052487887 0.04476227 0.042727727
000030 62 cb 95 3d 87 cb 9a 3d 08 57 3f 3d e3 09 77 3d
       0.07314183 0.07558351 0.04671386 0.060312163
000040 39 fd 70 3d c9 ad 20 3d 5d 4a 45 3c 29 b8 a9 3c
       0.058835242 0.039228234 0.012041655 0.020717697
000050 b0 49 43 bb 48 fb 03 3c 53 c9 85 bb f0 bc 3c bd
       -0.002979856 0.008055516 -0.0040828376 -0.046078622
000060 24 51 a2 3a 00 79 88 bc 7b b9 f7 bc 0e cf a7 bc
       0.0012383801 -0.01665926 -0.030239811 -0.020484474
000070 6f 0a 39 bc 92 34 27 bb 47 3e 35 bc 7c d4 06 3b
       -0.0112939915 -0.0025513512 -0.011062211 0.0020573428
000080 f6 12 c4 3b ee c4 3c bc b8 2e 09 bc 83 56 ca bb
       0.0059837056 -0.011521561 -0.008372955 -0.006174864
000090 46 3d 8c bb da 0a e7 3b 70 c8 20 3a f4 b6 b0 bc
       -0.0042797653 0.007050854 0.0006133383 -0.021571614
0000a0 0e e0 a6 ba 6e 65 74 bb 29 98 ad bc 3f b5 7e 3b
       -0.0012731568 -0.0037291902 -0.02119072 0.0038865355
0000b0 09 10 5b bb b8 95 16 bb 52 0c db 3a 2c 58 8f 3b
       -0.0033426306 -0.0022977423 0.0016712046 0.0043745246
0000c0 a3 03 f5 ba b5 74 1c 3b d2 19 bd 3a c3 3e 3c bc
       -0.00186931 0.0023873274 0.0014427251 -0.011489573
0000d0 4f 4d 02 bc 32 c9 0a bc 69 52 a5 3d 72 ab 91 3d
       -0.007953002 -0.00847082 0.08072359 0.07112779
0000e0 70 f8 83 3d 90 a3 6a 3c 8f 33 bc 3c 6d 5c 14 3c
       0.0644387 0.014321223 0.022973804 0.009055239
0000f0 9e 8c ab 3b ea fa fc 3b 84 4d 40 bb ac e5 c1 ba
       0.0052352687 0.007720341 -0.0029343078 -0.0014793179
000100 84 62 fe ba 00 3d 0a bc 53 70 40 bc 48 c6 6b 3b
       -0.0019408022 -0.008437395 -0.01174553 0.003597634
000110 d8 68 c9 3a 54 d1 8b bc 20 48 8d ba 84 6a 49 bc
       0.0015366329 -0.017067589 -0.0010778941 -0.012293462

momentum_buffer f4 [10, 128]
000000 7c cd c5 3c 7d 1c 94 3c 0b c9 8d 3c d8 39 ac 3c
       0.024145834 0.01807999 0.017307779 0.021023676
000010 93 31 3a 3b 9d a7 1f bc ae c3 9b bb 65 30 45 bb
       0.0028410896 -0.009744552 -0.0047535514 -0.003008866
000020 47 3f 87 3c 04 3f 76 3c 78 a0 7f 3c c5 25 31 3c
       0.016509665 0.0150296725 0.015602224 0.010812228
000030 5a 52 15 3c 6f 46 13 3b 03 68 31 3c 30 83 3c 3c
       0.009113872 0.0022472402 0.010828021 0.011505887
000040 98 7b 7d 3c 1c 75 3f 3c 5a 1c 41 3c 4b 2a 5d 3c
       0.015471362 0.011685636 0.011786545 0.013498853
000050 e1 06 26 3b ba 49 e1 bb d9 6b 1a bb 36 7a 15 bb
       0.002533369 -0.006875244 -0.0023562817 -0.002280844
000060 75 fe 34 3c 96 ce 24 3c 12 db 2a 3c c8 63 ec 3b
       0.011046995 0.01005902 0.010428207 0.0072140433
000070 34 56 ad 3b 27 cb 05 3b a0 55 e4 3b 0e 49 f8 3b
       0.005289817 0.0020415278 0.006968215 0.007577068
000080 6a fe 2c 3d 47 fa 17 3d dc ba 10 3d bc 5a 1f 3d
       0.042234816 0.037103917 0.035334453 0.03890489
000090 44 fc 28 3c 90 8c 09 bc 62 62 2f bb ec 08 26 3c
       0.010314051 -0.008395329 -0.0026761522 0.010133963
0000a0 4a fc be 3c 77 78 ea 3b 90 67 99 3b 75 2f 5b 3c
       0.02331366 0.007155474 0.004681535 0.013378014
0000b0 be 95 ff 3b ec 33 25 3b fb 42 62 3c 68 31 5b 3c
       0.007799833 0.002520795 0.013809915 0.013378479
0000c0 7f e3 d2 3b 53 3f 18 3b eb 20 e0 3b 7c 03 97 ba
       0.006435811 0.0023231104 0.0068398616 -0.0011521424
0000d0 bc 4c 73 3b 5e 02 ba 3b a2 9b da 3b 70 8c 34 ba
       0.0037124595 0.0056765517 0.006671385 -0.0006887382
0000e0 c3 cd 9f 3b 7c 75 4a 3c e8 86 ba 3a be c3 b0 3b
       0.0048768236 0.012357112 0.0014230879 0.005394428
0000f0 49 ea d2 3b b8 f1 f7 ba 9a 95 99 3b f8 41 44 bb
       0.0064366204 -0.0018916642 0.0046870233 -0.0029946547
000100 03 27 d4 3c 59 fc d9 3c 2f 3c c2 3c 0f 7f fc 3c
       0.025897508 0.026609587 0.023710338 0.030822305
000110 9e f8 c7 ba 03 5e 37 bc da 24 ed bb 02 8c 07 bc
       -0.0015256589 -0.011191848 -0.007237059 -0.008273127
000120 f4 be 57 3c 2a 17 3b 3c 74 74 0a 3c 00 dc 09 39
       0.013168085 0.011419097 0.008450616 0.00013147295
000130 05 d4 4b 3c 4a 94 15 3c b3 56 70 3c cb 3f 09 3c
       0.012440686 0.009129593 0.014669108 0.008377026
000140 12 1a a2 3c 2c 02 fa 3c 6f bb c6 3c c0 5a f3 3c
       0.019787822 0.030518614 0.024259297 0.029706359
000150 56 c3 60 3c e0 0d 29 3b 56 f2 03 bc ae 42 32 3a
       0.013718447 0.0025795624 -0.008053383 0.0006800097
000160 96 4b 7f 3c c1 97 a2 3c 1f bb bb 3c 8d e9 98 3c
       0.015581986 0.019847753 0.022916375 0.018666053
000170 59 88 88 3c ce 0a 6b 3c 60 d4 d6 3c 4d 12 c3 3c
       0.016666578 0.014345838 0.026224315 0.023812437
000180 7c 87 13 3d 4e 52 e6 3c 3d 79 fd 3c 33 12 29 3d
       0.03601788 0.028115418 0.0309416 0.04127712
000190 2d 52 56 3c 6e 31 a2 bb 79 1a 92 3b 47 cc 0f 3c
       0.013081116 -0.00494974 0.004458722 0.008776731
0001a0 10 86 c0 3c f7 ad 88 3c 81 ac b7 3c 9a 53 00 3d
       0.023501426 0.016684515 0.022421123 0.03132973
0001b0 cd 45 62 3c 80 c1 2e 3b bc 33 7e 3c da d2 73 3c
       0.013810587 0.0026665628 0.015515264 0.014881814
0001c0 63 a3 dd 3c 3a 71 a2 3c da d1 c9 3c ae 33 15 3d
       0.027055448 0.019829381 0.024636198 0.03642624
0001d0 cc 5d b6 3a f2 d4 be b9 c0 8a 81 bb 4a 20 64 bc
       0.0013913452 -0.0003639828 -0.003953308 -0.013923714
0001e0 72 08 d7 3c 5d 0a aa 3c 50 d2 4a 3c b1 3e ce 3c
       0.026249144 0.020756895 0.012379244 0.025176378
0001f0 36 ad 3a 3b fb f9 b5 3b 25 72 fd 3b a2 04 24 bb
       0.002848459 0.0055534816 0.0077345544 -0.0025027175
000200 34 4f 6a 3c a2 6e ce 3c 74 4c a5 3c 54 41 83 3c
       0.01430111 0.025199238 0.020178057 0.016022362
000210 e1 c6 10 3c 99 68 a6 3b d2 1c 8c bb f9 23 88 3c
       0.008836479 0.005078387 -0.0042758966 0.016618716
000220 db 64 36 3c 4c 8c a2 3b 70 16 32 3a 2b 6e ae 3b
       0.011132444 0.0049605723 0.00067935046 0.0053231916
000230 73 13 ac 3c 0c 1f 9a 3c 19 11 5f 3c cd dd 94 3c
       0.021005368 0.018813632 0.013614916 0.01817217
000240 d8 0f 18 3c 9e f3 89 3c b2 e1 52 3c 98 08 28 3c
       0.009281121 0.016839799 0.012871193 0.010255955
000250 66 f2 e5 3b c3 cb 6c 3b 89 00 05 bb ff c0 38 3c
       0.0070174215 0.0036132194 -0.0020294508 0.011276483
000260 28 a7 e5 3b c6 ba 4c 3b 70 94 0d 3a 97 6e 6c 3b
       0.007008452 0.0031239255 0.0005400842 0.003607666
000270 a2 26 65 3c 65 98 3c 3c ba 86 09 3c 5a 24 4b 3c
       0.013986262 0.011510943 0.008393938 0.012398804
000280 ce ef 21 3d 07 70 1e 3d 2c 0a e1 3c 94 5e e6 3c
       0.039535336 0.038681056 0.02747067 0.02812127
000290 b7 30 02 3d c7 1c e0 3c 7f c4 2f 3c 24 83 06 3d
       0.03178474 0.027357472 0.010728001 0.03283991
0002a0 f0 ff 38 3d 94 40 e4 3c 26 86 fc 3c 2a 9a f5 3c
       0.045165956 0.027862824 0.030825686 0.029980738
0002b0 cf 4f 41 3d f0 51 3a 3d 0b 91 19 3d a6 02 32 3d
       0.047195252 0.045488298 0.03749184 0.043459557
0002c0 cc 03 1a 3d 7c 9e 0f 3d be 70 18 3d 6a ef 0e 3d
       0.037601277 0.03506325 0.037216894 0.03489629
0002d0 cc 9b 09 3d 5c 8d 0f 3d 37 bf 4d 3d f8 4d eb 3c
       0.033595845 0.03504692 0.050231185 0.028723702
0002e0 cc c5 29 3d 8c b8 1d 3d 6c e0 07 3d 08 23 12 3d
       0.0414484 0.038506076 0.03317301 0.03567794
0002f0 97 29 ab 3c fc 33 cb 3c 08 b2 1a 3d 72 f8 d9 3c
       0.020893855 0.024805062 0.03776744 0.026607726
000300 0f 8a 71 3c 4a 98 8d 3b db ba 12 3c 38 3c bb 3c
       0.014742388 0.004321133 0.008955683 0.022855863
000310 38 8e fb 3b 6e 19 61 3c 1c e8 c8 3c fd 8f ec 3b
       0.007676866 0.013738973 0.02452474 0.007219313
000320 ce 90 fd 3c f5 c2 d9 3c 36 9e a3 3c b8 85 9b 3c
       0.030952837 0.02658222 0.019972902 0.01898466
000330 9c b8 45 3d 1e e2 3b 3d 40 44 46 3d 79 75 60 3d
       0.04827176 0.04586994 0.048404932 0.05479953
000340 56 30 4e 3d ba 1e a6 3c cf c2 bc 3c f0 fd 8f 3c
       0.050339065 0.020278323 0.02304211 0.017577142
000350 fa 37 0c 3d 46 e2 fc 3c 25 9d b9 3c ef fb ed 3c
       0.03423307 0.030869614 0.02265794 0.029050795
000360 25 d4 21 3d 06 98 92 3c b8 61 f8 3c b7 6c 90 3c
       0.039508957 0.017894756 0.030320033 0.017629964
000370 c5 5a 28 3d 5e 88 06 3d 5d 00 95 3c b7 e9 c5 3c
       0.04110219 0.032844894 0.01818865 0.024159295
000380 db f3 cc 3c 20 6a b8 3c eb 37 ac 3c 20 ca 10 3d
       0.025018623 0.022511542 0.021022758 0.03534901
000390 94 bf 16 3d 0e 52 17 3d 0d 2b ea 3c 3d 5b 08 3d
       0.036803797 0.036943488 0.028584981 0.033290137
0003a0 94 51 18 3d 80 ed 10 3d f8 1b f9 3c 62 3c e4 3c
       0.037187174 0.035382748 0.030408844 0.027860824
0003b0 ea 87 55 3d db 87 41 3d ac 05 1e 3d f8 f9 17 3d
       0.05213157 0.047248702 0.038579628 0.037103623
0003c0 40 55 00 3c 14 1b 83 3c ae 47 16 3c 32 7c de 3b
       0.007832825 0.016004123 0.009172363 0.0067897076
0003d0 b2 32 ac 3b 6d d3 b1 bb d5 cf 9f 3b eb 7d 0f 3c
       0.005255067 -0.0054268152 0.0048770704 0.0087580485
0003e0 1b 07 97 3c 7a e3 e8 3c fa 37 4f 3c e2 65 92 3c
       0.018436005 0.028428782 0.012647623 0.017870847
0003f0 cf d1 2e 3d b0 59 3d 3d 50 39 0c 3d 11 5e 0f 3d
       0.042680558 0.04622811 0.034234345 0.035001818
